…
To enable them in other operations, rebuild TensorFlow with the appropriate compiler flags.
2025-10-17 21:31:28.046032: I tensorflow/core/common_runtime/gpu/gpu_device.cc:1616] Created device /job:localhost/replica:0/task:0/device:GPU:0 with 13510 MB memory:  -> device: 0, name: NVIDIA GeForce RTX 4090 Laptop GPU, pci bus id: 0000:01:00.0, compute capability: 8.9
Model: "sequential"
_________________________________________________________________
 Layer (type)                Output Shape              Param #
=================================================================
 reshape (Reshape)           (None, 48, 51)            0

 lstm (LSTM)                 (None, 48, 128)           92160

 dropout (Dropout)           (None, 48, 128)           0

 lstm_1 (LSTM)               (None, 64)                49408

 dropout_1 (Dropout)         (None, 64)                0

 dense (Dense)               (None, 32)                2080

 dropout_2 (Dropout)         (None, 32)                0

 dense_1 (Dense)             (None, 1)                 33

=================================================================
Total params: 143,681
Trainable params: 143,681
Non-trainable params: 0
_________________________________________________________________

[7/9] Training model...
2025-10-17 21:31:29.390639: W tensorflow/core/framework/cpu_allocator_impl.cc:82] Allocation of 4640262336 exceeds 10% of free system memory.
Epoch 1/50
2025-10-17 21:31:32.034565: I tensorflow/stream_executor/cuda/cuda_dnn.cc:384] Loaded cuDNN version 8907
…
